mycobot_280/scripts/model.pth (torch, 183623 bytes, 10 tensors)

fc1.weight f4 [256, 6]
00000000: 71d8 b2be 276e d83e f31c 94be a9eb 0ebe
00000010: 94b3 03be 6832 aebd b573 5f3e b693 913e
00000020: 195c 4cbe 4593 cc3e 2edb 803b 7cb2 49bd
00000030: df06 a8bd 2123 d2bd fbc6 d13e 1b20 bcbc
00000040: 997c 013e 5c08 9dbd 7b3b 2e3e 6ec4 dbbd
00000050: 848f 5b3e e114 343e bbb7 ca3e db91 893d
00000060: db08 82be 882c 323e 07c9 8f3d 740e 493e
00000070: 4ed4 58be 21ad 50be b2d6 b23e ba21 53be
00000080: 31bd 8f3e 90d4 383e e493 b63e 380c f03d
00000090: 3305 b03e 4b7c b7be 233e 663e 5cdf 01be
000000a0: 8f49 ae3e 2f5f 663c c0b0 b1be 34be 0ebe
000000b0: a433 a0be b756 9bbe cce7 6d3e b0c5 803e
000000c0: e756 ed3c 97c8 3bbe c22d e53d fda3 04bd
000000d0: 5c34 d2bd e7ea e23c de0b afbe fde9 973d
000000e0: bf47 1dbd 992f 44be e357 ac3e 0033 efbd
000000f0: 3dcb a3bd 2bc1 933d 5dad 6abe cc5b f1bc
00000100: 8a5f 0bbe ad85 92bd 9a88 82be bc98 c43e
00000110: cbd4 92bd 6ced ccbe fa52 85be 3430 843e
00000120: 4157 9f3d c876 c43e 9fb2 b4be b8d8 3ebe
00000130: abf2 b53e 1ef9 83be 90a3 c43e 80cb a93d
00000140: fad7 163e 3a5f 4d3e 7750 043d 95c0 90be
00000150: 3aeb 00be 9685 643d 9520 993d 8a8e 5a3e
00000160: d628 7abe 3f98 91be f29a 5f3a 6e2a 8abd
00000170: 4463 91be 052b 37be 436b 263e fc04 91be
00000180: 6502 ce3e 3227 803e 78d1 ae3e ee87 9a3e
00000190: 0c0f 303e ab7f 2ebe cf43 833c a558 773d
000001a0: 2044 e53d e160 c93e 0ee9 603e 471a bebd
000001b0: dff5 043d 1105 7e3e 0588 38be c688 4c3e
000001c0: 1cf6 9cbe cee9 853e 06e6 ce3e 82dc f13d
000001d0: 5135 75ba ff42 6ebe 011e d2be 758b a7be
000001e0: 3f7f a5be 62e1 55be 0ae4 863e a2cf c73e
000001f0: 22ef 4ebe 08d5 843e 8828 813e 2a49 be3d
00000200: 1653 b33e bae3 373d f912 773e 6713 9d3e
00000210: 9883 ac3d 4480 9ebd 05d6 8c3e 92ea 8abe
00000220: f6f7 b83e 200b 4e3e 6e8b a2be 7e35 cebd
00000230: a882 83be 4d2b 483e fac0 c83e ba04 273e
00000240: 0ef4 823d e651 6bbe de63 7c3e f1c3 9ebc
00000250: d6ba 0fbd f0c2 e33b d56e 7a3e c26e a43e
00000260: 3d8b 8f3e a501 abbd b04e 7cbc a590 83be
00000270: 4ec7 5a3e 56d2 f3bd a20c b93e 4e20 11be
00000280: b977 b5be 62be 94be e071 293e 26f1 1abd
00000290: 53c1 7dbe 1931 90be e1bf 863e 66f1 c8be
000002a0: 1a9e 60be c82f d0be bee3 af3e 6690 bdbd
000002b0: 5312 d3be ff41 443d 3b89 7ebd e85b 8cbc
000002c0: 6375 243e 5f21 5c3e 1a3e 1cbe 260e be3e
000002d0: 5a75 bdbe b74c 35be 0d5c c3bb cbce a1be
000002e0: 0512 953e bf21 babd 7db8 a0bb b2dd 81be
000002f0: 3e86 8bbe f3c3 163e 6d6f ce3e 14b5 0f3e
00000300: 6341 c9be 5943 73be 5159 c2bd 2eef 9abd
00000310: 9ee4 bfbe 6caf 593e 2a19 b53d 4e0f ddbd
00000320: 48b4 123e c660 f9bd 18fd 2c3d dd3d df3b
00000330: 0a8d a83e c598 c3be 4d96 313e eafc a0be
00000340: 7357 a93e b291 2dbe c08e f1bd e118 7b3e
00000350: b8d5 5b3e beda b03e 4266 c53e e567 c1bd
00000360: a136 7bbe 2bb4 373d 944c d53d e090 d63e
00000370: a3d0 3fbe 6685 01be cdf1 a83e 245f 66bc
00000380: 97d2 9cbe 7a0b 82bd 83d9 303e 0663 81be
00000390: 04b2 d0bd e169 87be e7fe 3a3e d14f a63e
000003a0: a5ef 963c e8df 0b3d 94ef 693b 50a3 bbbc
000003b0: 4ab3 953c ef53 e93d 6c21 06be 6981 91be
000003c0: c96c 743e 2917 cfbc 3663 c83e b208 be3e
000003d0: 1e5a 7bbe 78ef 8abd b728 723e b0e3 c53d
000003e0: aa1b a03e 902a a5be 48db 38be d25b e03d
000003f0: 60d5 e83d 25c8 89be 4afd c8be d950 fabd
-0.34930757 0.4227154 -0.28928337 -0.13957085 -0.12861472 -0.08505708 0.21821482 0.28433007
-0.19957007 0.39956108 0.0039323783 -0.04924248 -0.082044356 -0.102606066 0.40972123 -0.022964528
0.12645186 -0.0766761 0.17014877 -0.10730825 0.21441466 0.1758609 0.395933 0.06717273
-0.2539738 0.173998 0.07020765 0.1963442 -0.21174738 -0.20378543 0.34929425 -0.20618334
0.2807403 0.18049836 0.35659707 0.117210805 0.34378967 -0.35837016 0.22484641 -0.12682861
0.34040496 0.0140607795 -0.34705162 -0.13939744 -0.312894 -0.30339596 0.23232955 0.25150824
0.028972102 -0.18338238 0.11190368 -0.032382954 -0.10263893 0.0276999 -0.3418874 0.074176766
-0.0383985 -0.19158782 0.33660802 -0.11679649 -0.07997749 0.07214578 -0.22917695 -0.029462717
-0.13610664 -0.07154403 -0.25494844 0.38397777 -0.07169493 -0.4002489 -0.2603987 0.25818026
0.07780314 0.38371873 -0.35292527 -0.18637359 0.35536703 -0.25776 0.38406038 0.08290768
0.14730826 0.20055857 0.0323033 -0.28271928 -0.12589732 0.05579146 0.07476918 0.21343437
-0.2442964 -0.28436467 0.00085298636 -0.06746374 -0.28396046 -0.17887504 0.16251855 -0.28324115
0.40236202 0.25029904 0.34144187 0.3018183 0.1719324 -0.17040889 0.016023545 0.060387272
0.111946344 0.39331725 0.21963903 -0.09282356 0.032461043 0.2480662 -0.18020637 0.1997405
-0.30656517 0.2615494 0.4040987 0.11809637 -0.0009353953 -0.23267744 -0.41038516 -0.32723585
-0.32323644 -0.20886758 0.26345855 0.390256 -0.2020841 0.2594378 0.25226235 0.09291299
0.35024327 0.04489491 0.24128331 0.30678865 0.08423537 -0.077393085 0.27507034 -0.27132088
0.3612668 0.20121431 -0.31747 -0.100687966 -0.2568562 0.19547768 0.3920973 0.16310397
0.06394206 -0.2298046 0.24647471 -0.019380542 -0.03509029 0.0069507286 0.24456342 0.32115752
0.28035918 -0.08349923 -0.01539962 -0.25696293 0.21365091 -0.11905353 0.3614245 -0.1417248
-0.35442904 -0.290515 0.16547346 -0.037827633 -0.24780779 -0.2816246 0.26318267 -0.39246672
-0.21935311 -0.40661454 0.3435344 -0.092560574 -0.41224918 0.0479145 -0.062142592 -0.017133668
0.16060404 0.21497105 -0.15258065 0.3712017 -0.37003595 -0.17705046 -0.005961901 -0.31603083
0.2911531 -0.09088468 -0.004904805 -0.25364453 -0.27250856 0.14723186 0.40319386 0.1403392
-0.393077 -0.2375616 -0.09489692 -0.07565151 -0.3747911 0.21258324 0.0884269 -0.10793935
0.14326584 -0.12176661 0.042233557 0.0068127946 0.32920104 -0.3820249 0.17342491 -0.31442958
0.3307453 -0.1695011 -0.117948055 0.2452121 0.21468246 0.34541887 0.3855458 -0.094436444
-0.24532558 0.044849556 0.10414997 0.41907406 -0.18731932 -0.12648544 0.3299698 -0.014060769
-0.30629417 -0.06349845 0.17270474 -0.2527086 -0.10190204 -0.26447967 0.182613 0.3248277
0.018424818 0.03414908 0.0035695778 -0.022905022 0.018273968 0.11392962 -0.13098687 -0.28419045
0.23869623 -0.025279598 0.39138192 0.3711601 -0.24546096 -0.06783956 0.23648344 0.096625686
0.31271106 -0.32259035 -0.18052399 0.10955013 0.11368823 -0.2691051 -0.39255744 -0.12222452

fc1.bias f4 [256]
00000000: ea53 083e 8d14 893e 1cc3 5ebd e3a7 c73e
00000010: 711c 4f3d 367f d43e 2140 a43d 77a2 62bd
00000020: d035 563e e444 1b3d ba52 b73e 774f 9bbe
00000030: dc0c 2ebe 421f 43be f9c6 093e f4c8 85be
00000040: aff4 c63e 96d6 b33e d7ba 803e 5363 243e
00000050: 0fd1 a2be 64fb 323e abf6 653e 2f28 aebd
00000060: cb1e 99be d197 273c 602c babe f48f b83e
00000070: 33ee 01be aba3 443e a4bb 123e ac99 ccbd
00000080: de95 81bd b6b7 8ebe b098 b5be 24e6 5ebe
00000090: 3bba ccbe 435b 943d 7fc6 c43e d0e7 b9be
000000a0: 45c3 42bb d7bc a33d fa4e 823e c518 033e
000000b0: b6ae cfbe f7e9 82be 8ce8 8a3e 2d93 213e
000000c0: cbd5 ad3e e154 c83e 6041 6dbd b60c 6dbe
000000d0: 57df bebe 6c51 733e 9e17 b7be b938 51bd
000000e0: 4fa8 c33e 882e 193d 27aa 0cbe a180 3e3d
000000f0: 8ea1 25be 4808 94be 3e3c b83e 3583 983e
00000100: 0464 9e3e c945 66be a253 923d e5f8 e6bc
00000110: e8c7 db3c 0ad0 bf3e 9675 5cbe e01b 0c3e
00000120: ceb9 96be 7673 083d 6024 82be 7643 b5be
00000130: 3df0 233e 63f2 5bbd 74d1 38be 2201 823e
00000140: b621 8bbe be25 bb3e af6c 12bc ac47 87be
00000150: 30c7 0e3d 5eb3 413e 3c05 5bbd e93e 99bd
00000160: 7366 27be 0a42 073e 3f9e 56be 49e8 4d3e
00000170: 0ae9 59bd 77b0 a6be 547a bf3d b40f 853d
00000180: 49fd a03e 32d2 b93e 1e2a 23be 5e7d c83d
00000190: 45db ba3d 8c81 7e3e c803 51be 93ac 7b3d
000001a0: 1935 ad3e 9df4 7cbd 0744 c73e 34c5 443e
000001b0: 2281 4cbd 79f6 933e 207e 96be bf97 b13e
000001c0: d1a7 04be 1baa 843e f505 a43e 0816 28bd
000001d0: 6376 b5be b16b d43d d4d5 973c 04d5 a63e
000001e0: bfa4 193e fcbb 9b3e 9f16 003e ca52 a4be
000001f0: d84d 343e a247 d0be e3f5 b93e 88f8 a4be
00000200: 6502 a83c 73f1 9c3e 26c4 dfbd 1b92 433e
00000210: e54e 1d3e ae53 633e 1223 b03c a263 f4bd
00000220: 6272 18be 163c 22bd 41cd 103e 2dce 8c3e
00000230: 5b02 9bbe b6d0 533e 78c8 c4be 98f9 c1be
00000240: da7b 2e3d 1dbf b53e 5ee3 bfbe bc5f 243d
00000250: 32d1 87be 48b5 78be b019 75be 7435 803e
00000260: e658 603d cf8e 7bbe 2e44 3abe d1eb 7e3e
00000270: ee3e c1be 6823 f2bd dac3 a4be 25a4 223e
00000280: fc46 c83c ccc9 7ebe 3b55 2d3e 380c cfbd
00000290: 9c9e 783e 87a7 973e aec6 85be e90e 98be
000002a0: 1f3c 1dbe 1ddc 873e 447d c63e 52a8 eb3d
000002b0: 5309 c03e 1b6d 51bd 2eb4 883e 724d 873e
000002c0: 4b57 bb3e 8443 2cbe 9ab1 02be f6c6 cc3e
000002d0: 9aaa c53e f560 b8bc 542f 5cbe 32f2 3abb
000002e0: ad72 c1be 5e9e 7b3e dfe7 9ebe e5a2 7bbe
000002f0: 47c9 943c 161e 8d3e fd90 f33b 7889 2cbe
00000300: 35a6 29bd 30fd a63e d08a 84bd e021 c2be
00000310: ca19 b43e 798e 863d 1be2 053e 05bf 80be
00000320: e88f a73e 6ace 803e 96d7 823e 6b23 563e
00000330: 34c1 02be c7aa 98be cd6b 9d3e 890d 453e
00000340: 5b95 733e 701f a4bd 5618 853e 6405 97be
00000350: 0cff c4be b999 ae3e 29c6 afbc e85a aa3d
00000360: 23df 233e d5a9 34bd c2b8 ff3d 7c33 853c
00000370: 2a2a 893e 38a9 b73e 61cc 8dbe b35f 87be
00000380: 2854 c83e c013 bebd dd06 c7be f75f 333e
00000390: dacf abbe 1422 8d3d 2997 153e 0cd5 acbe
000003a0: 3e2d bcbe 5e71 40be d981 0abe f2fe 15be
000003b0: 1d22 be3e c2c3 f1bd 791b 6bbe 3b1e 0a3e
000003c0: 181b 2fbd 3ae7 a5be 5a78 f839 c011 fa3d
000003d0: b0a4 d03e b01c a3be 3062 cebe 70be 88be
000003e0: 2fbc 01bd 405b 9b3e a325 74be 874c 85bd
000003f0: 73f5 8ebd 67b9 bb3d 76a7 a63e a13c 04bd
0.1331326 0.26773492 -0.05438529 0.38995275 0.050564233 0.41503304 0.08020044 -0.05533072
0.20918965 0.037907496 0.35805303 -0.30334064 -0.16997093 -0.19054893 0.13454808 -0.26129878
0.38858554 0.35124654 0.25142547 0.16053514 -0.31800124 0.1747871 0.22457378 -0.08503758
-0.29906306 0.010229067 -0.3636198 0.36047328 -0.12688522 0.1920306 0.14329392 -0.09990248
-0.06327413 -0.27874535 -0.35468054 -0.21767479 -0.39985833 0.07243969 0.3843269 -0.3630967
-0.002971844 0.07995003 0.2545088 0.12802418 -0.4056298 -0.25569126 0.27130544 0.157788
0.33952174 0.39127257 -0.057923675 -0.2314938 -0.3727977 0.23761529 -0.35760206 -0.051079486
0.38214347 0.03739789 -0.13736783 0.04650939 -0.1617491 -0.28912568 0.3598346 0.29787603
0.3093568 -0.22487558 0.07144858 -0.028194854 0.026828721 0.3746341 -0.2152923 0.13682508
-0.29438633 0.033313237 -0.25418377 -0.3540303 0.16009612 -0.053697955 -0.1804865 0.2539149
-0.27174157 0.36552233 -0.008937045 -0.2642187 0.03485793 0.1891608 -0.05347179 -0.07482702
-0.16347675 0.13208786 -0.20958804 0.20108141 -0.05320076 -0.32556507 0.09349504 0.06497136
0.3144324 0.3629318 -0.15934035 0.09789537 0.091238536 0.24854106 -0.20411599 0.061443876
0.33829573 -0.06175672 0.38919088 0.19215852 -0.04992784 0.2889898 -0.293931 0.34686086
-0.12954642 0.2591103 0.32035795 -0.041036636 -0.35441884 0.10372103 0.018534578 0.32584393
0.15004252 0.30416858 0.1250863 -0.32094413 0.1760782 -0.40679651 0.3632041 -0.32220864
0.020508954 0.3065296 -0.10926084 0.19098704 0.15362127 0.2219989 0.021501098 -0.11933066
-0.14887384 -0.039608084 0.14140798 0.2750105 -0.30275235 0.20685086 -0.38434196 -0.37885737
0.042598583 0.3549737 -0.37478155 0.040130362 -0.2652679 -0.24287903 -0.2393558 0.25040781
0.05477228 -0.24566196 -0.18190071 0.24894644 -0.37743324 -0.118231595 -0.32180673 0.15882929
0.02444791 -0.24881667 0.16927044 -0.101097524 0.24279255 0.2962 -0.26128143 -0.29698876
-0.15354966 0.2653512 0.38767445 0.11506714 0.37507114 -0.05112944 0.26699966 0.26426274
0.36590037 -0.1682263 -0.12763062 0.39995545 0.3860672 -0.02250717 -0.21502429 -0.0028525707
-0.37782803 0.24572131 -0.3103628 -0.24573858 0.018162383 0.27562016 0.0074330554 -0.16849315
-0.041418273 0.32615042 -0.06471789 -0.3791647 0.35175925 0.06570143 0.13074534 -0.25145736
0.3272698 0.2515748 0.25555104 0.20911948 -0.12769014 -0.29817793 0.30746308 0.19243445
0.23787443 -0.08013809 0.2599513 -0.294963 -0.38475835 0.34101656 -0.021456795 0.0831812
0.16003089 -0.044107277 0.12486412 0.016259901 0.2678998 0.3587129 -0.2769499 -0.264402
0.39126706 -0.09281111 -0.38872424 0.17517076 -0.33557016 0.068912655 0.14608444 -0.33756292
-0.36753267 -0.18793246 -0.13526095 -0.14648035 0.371354 -0.11804916 -0.22959699 0.13488095
-0.042750448 -0.32402974 0.00047391915 0.12210417 0.40750647 -0.31857824 -0.40309286 -0.26707792
-0.031673606 0.30343056 -0.23842482 -0.06508737 -0.069804095 0.09166222 0.32549638 -0.032284383

fc2.weight f4 [128, 256]
00000000: 006f abbc 4487 a83c cc65 3b3d 024c 5f3d
00000010: e2d8 31bd 702a 19bd 707c d43c 2ec2 4c3d
00000020: 6aae 153d 38d4 96bc f2b7 503d a465 1abd
00000030: a89e 9ebc 34ae 4cbd 38e7 9a3c 0041 013c
00000040: 5cb8 903c 9021 88bc 66b2 58bd 4a86 1a3d
00000050: d650 6e3d 7e2b 6abd 74ac 66bd 0441 b73c
00000060: 50b5 25bc c486 d7bc 4066 943c 387e b1bc
00000070: 3060 af3b 4c61 06bd c0af 5fbb b8bd 1cbc
00000080: d097 073d b44d fb3c cc86 48bd 24f2 fabc
00000090: e884 42bc 5c74 2a3d 70e0 6cbd 8472 1e3d
000000a0: 488a 403d 5ef4 01bd 8a16 353d 0032 e5bb
000000b0: e000 94bc b8ea 9fbc f4a2 4d3d 92f6 723d
000000c0: c07c e33b 9cda 3ebd 6085 283d 40cd 313d
000000d0: 7e0d 37bd 90ce b5bc a0de 9cbb 5441 7a3d
000000e0: 284a 41bc 10e9 dc3b b8ba 973c 8848 5dbd
000000f0: 4aba 683d 8e6d 4cbd 7eec 1fbd c062 5abc
00000100: 80b1 e63b 08e9 1c3d ecee a73c ecb2 98bc
00000110: 5a58 263d 60d3 f23c 9476 593d 72e5 62bd
00000120: 7696 5c3d 686f a73c bc36 ccbc d0b9 1fbd
00000130: f635 6fbd 0a82 22bd 1878 30bc acd7 82bc
00000140: 3475 93bc c262 0a3d 987b 40bd 22d4 173d
00000150: 7095 09bc 3212 16bd 0235 053d b60b 313d
00000160: b60e 00bd b630 3e3d ca37 213d 501f 33bc
00000170: 68a8 60bd 70a1 01bc 882f dcbc 76c8 003d
00000180: c49f c6bc 8829 2cbc 0cfb 4bbd a698 68bd
00000190: b882 603c d621 213d 9075 01bd e8c2 d3bc
000001a0: a6b0 04bd 0cca fb3c 202f 2ebb d0c1 0ebc
000001b0: 5687 1f3d 707b 823b 549c 76bd fca2 62bd
000001c0: e488 a6bc f8a2 f93c 7e59 20bd d88d 8d3c
000001d0: ce8b 62bd 2873 44bc 9e39 083d b29f 55bd
000001e0: 8036 12ba 30ea ec3b 1a9c 30bd 1a04 623d
000001f0: a065 cf3b f026 b03b 449b 01bd c02a dcbb
00000200: 381a 15bc 9c94 3abd 7877 1cbc 242e 4e3d
00000210: 543e 8cbc 7438 1c3d c044 bfba 6c10 f63c
00000220: e660 46bd 08a5 69bd 6669 34bd c60a 7cbd
00000230: 2ca0 9cbc a8f7 56bd c048 6cbb e06a 06bd
00000240: 9c29 eebc 00fc 80bb 40c0 113c 3060 93bc
00000250: e8fe bcbc 105a e7bb a8bd cd3c 9040 403d
00000260: 64f4 e43c 9612 29bd 52ed 7fbd 5ee3 4bbd
00000270: cc1a a53c 6002 81bc 064e 3d3d 68ea 44bc
00000280: a28b 0dbd 14a0 783d 0092 3d3a 40b1 593b
00000290: be89 493d ba72 1bbd e0c2 8dbc 10b0 50bd
000002a0: 2e0b 263d 20e1 263c ccd7 583d c687 47bd
000002b0: 4883 143d d0e2 c3bc 7274 683d 00ae 673d
000002c0: f05d 2c3d 12a0 7f3d 800c f3bb 386e dcbc
000002d0: 588f 4f3c 70d7 74bd a475 b0bc 9073 22bd
000002e0: a4bf 4a3d d688 27bd 30a0 f53b dc17 1f3d
000002f0: 4039 c93c 62c5 213d 2086 003d e017 1e3d
00000300: e8ec 5fbc 1c0d 6b3d a0c4 1fbb a0ad 3dbb
00000310: 40d0 12bd 809d 2cbc a0fb 4bbc acfe 86bc
00000320: 5a5f 373d 70a1 20bc f46e 64bd 387a 0b3d
00000330: 3609 70bd f051 b03c 58ba bebc 2adb 453d
00000340: fa9b 3f3d 8066 03bc d44d a63c 30a7 e4bb
00000350: 681b 30bc d0bf 51bd 868d 06bd 00e0 933b
00000360: 581d 11bc e657 5fbd a0a1 8cbb 4408 953c
00000370: 5880 c5bc 7c93 9a3c 28c0 293d 8091 633a
00000380: 96bd 553d 08b2 713d 58a5 633c fea7 70bd
00000390: 582a 05bc 82af 553d 8038 36bd 0ee0 1f3d
000003a0: d01d 4dbc 7083 d2bb f874 4fbd d85d 34bc
000003b0: a84a 26bd 34e8 973c c22a 653d 58f6 5ebc
000003c0: 085d 0a3d 6001 2e3c c084 e1ba 440b 42bd
000003d0: 8ea6 1a3d 207f 09bd f061 49bc c242 1fbd
000003e0: 8e0b 4abd 9648 1e3d 6479 42bd 5091 b1bc
000003f0: bad5 7ebd 78b7 f73c 620e 243d a4e9 103d
-0.020926952 0.020572312 0.045751378 0.054515846 -0.043419726 -0.037393987 0.025938243 0.04998987
0.036543287 -0.01841174 0.050956674 -0.03769459 -0.019362763 -0.04997082 0.018909082 0.007889032
0.017666034 -0.016617566 -0.05290451 0.037725724 0.05818256 -0.057170384 -0.056316808 0.022369869
-0.010114029 -0.026309378 0.018115163 -0.021666631 0.0053520426 -0.032807633 -0.0034131855 -0.009566717
0.033103764 0.0306767 -0.048956677 -0.03063304 -0.011872508 0.041614875 -0.057831228 0.03868343
0.047006875 -0.031727187 0.044210948 -0.006994486 -0.018066823 -0.019521102 0.050204232 0.05931718
0.0069423616 -0.0465952 0.04114282 0.043408632 -0.0446906 -0.022193223 -0.004787281 0.061097458
-0.011797465 0.0067416504 0.018521652 -0.05402425 0.056818284 -0.049909167 -0.039043896 -0.013329208
0.0070402026 0.038308173 0.020499669 -0.018640004 0.040611602 0.029641807 0.0530916 -0.055394597
0.05385443 0.020438865 -0.024928443 -0.038995564 -0.05840107 -0.039674796 -0.01077082 -0.015971981
-0.018000223 0.03378559 -0.04699287 0.03706754 -0.008397445 -0.036638446 0.032521255 0.04322406
-0.03126403 0.046433173 0.039359845 -0.010932758 -0.054848105 -0.007912025 -0.026878133 0.031441174
-0.024246104 -0.010507949 -0.049799964 -0.056786202 0.013703041 0.03933891 -0.031606257 -0.025849774
-0.032395028 0.030735992 -0.0026578382 -0.008713201 0.038947426 0.003982 -0.06020768 -0.055331215
-0.020328946 0.030473217 -0.039147846 0.01727955 -0.05530911 -0.011990346 0.033258073 -0.05215425
-0.0005577579 0.0072300658 -0.04311762 0.055179693 0.0063292533 0.0053757355 -0.031642213 -0.0067189634
-0.009100489 -0.04555188 -0.009549968 0.050336972 -0.017119564 0.038139775 -0.0014592633 0.030037127
-0.048432253 -0.05704215 -0.04404583 -0.06153371 -0.019119345 -0.052482277 -0.0036054105 -0.032816768
-0.029072575 -0.0039362907 0.008895934 -0.017990202 -0.023070768 -0.007060297 0.02511485 0.04693657
0.027948566 -0.04127749 -0.062482186 -0.04977738 0.02015438 -0.015748203 0.046216987 -0.012018777
-0.034556992 0.060699537 0.00072315335 0.0033217221 0.049203627 -0.03795121 -0.017304838 -0.050949156
0.040538006 0.01018551 0.052940175 -0.048713468 0.036258012 -0.023911864 0.056751676 0.056562424
0.042081773 0.062408514 -0.0074172616 -0.026908025 0.012668453 -0.05977577 -0.02154047 -0.03966099
0.04949917 -0.04090198 0.0074959025 0.038841113 0.024563432 0.03949488 0.03137791 0.038596988
-0.013667323 0.05738555 -0.0024378672 -0.00289426 -0.035843134 -0.010535598 -0.012450129 -0.016478859
0.04476867 -0.009804115 -0.055769876 0.034052104 -0.058602534 0.021523446 -0.023282215 0.048304714
0.04677961 -0.008020043 0.020300783 -0.006977938 -0.010748722 -0.051208317 -0.03284981 0.004512787
-0.008857094 -0.054527186 -0.004291728 0.018192418 -0.02410905 0.018869154 0.04144302 0.0008681044
0.052182756 0.059007674 0.0138944015 -0.05875396 -0.008127771 0.05216933 -0.044487476 0.039032035
-0.012519315 -0.00642436 -0.05064866 -0.011008702 -0.04059854 0.01854334 0.05594898 -0.013608538
0.033780128 0.010620445 -0.00172057 -0.047374025 0.037756495 -0.0335685 -0.0122914165 -0.038882025
-0.049327426 0.038643442 -0.04747905 -0.021675736 -0.062215544 0.030238852 0.04005278 0.035379067

fc2.bias f4 [128]
00000000: a654 033d c49f 603d c09a 7c3d 05a1 31bd
00000010: 75a4 1fbd 625d 433d 05a4 553d e815 033c
00000020: 8083 cf3b c28a 6bbd c017 7dbb 461e 0d3d
00000030: 44a8 873d c705 1abd 9051 f5bc a7ee 723d
00000040: 8b55 11bd b8bb ca3c 5f96 2ebd 4c08 21bd
00000050: 5a8a 4e3c 6b0b 8bbc cea1 2dbd f082 cebc
00000060: 903a c9bc 4012 42bb 353c c4bc a48f 1b3d
00000070: 4393 b6bc 5bc2 50bd 4d30 2dbd 6af2 333d
00000080: 28eb 0f3c e029 1a3b 7a3c 133d 2fb2 74bd
00000090: eaa7 01bd c0e8 b23a 2944 373b 95ea 083d
000000a0: 00d8 ffbb 7421 c0bc 60d3 7b3d 9611 3abd
000000b0: 57f9 4d3d 4845 333d 3e0a 3cbd 4e0d 033d
000000c0: 365a 4dbd 879f 773d 2c90 f03c 1e10 33bd
000000d0: 159c 60bd 9185 743d c321 4f3d c071 a73c
000000e0: 5681 dcbc 7e40 6cbc 00a5 20bc e7d8 33bc
000000f0: f242 4bbd fad2 4abd 74ad 28bd a023 66bd
00000100: 3e28 adbc 1f70 e03c ba08 223d 71fc ecbc
00000110: aa0f 9c3c 4f23 a23a 2131 e3bc 7f6b 4c3d
00000120: 1959 fa3b 7d86 4f3c 3844 603c 7edc 1ebd
00000130: 6d99 d7bc 3732 c73c ea69 3b3d 374f 183d
00000140: 5cb8 cfba 63ed 3fbd 3cb4 d33b 2ad8 0fbd
00000150: 7a3e 49bd cb10 4d3d a6e4 9bbc b24e 9c3c
00000160: d16e f83c a7ac 38bd f735 363d 310d a639
00000170: 2ec0 12bd 92fa 2abd 0835 2cbd 5aa9 f0bc
00000180: 6e3c 503d 0824 433c c9f2 433d 9cbd 9bbc
00000190: 2032 f7bc fb24 44bc 0017 ff39 a0a4 2fbb
000001a0: fbf6 2c3d b55b 45bd 00a4 8d3a 10ca 353d
000001b0: 80fc 743b 0885 4abd 0895 6b3d d530 503d
000001c0: 8f01 fc3c f6a3 2b3d f5c5 2fbd 4450 343a
000001d0: 04dc e83c f60e faba 1c2e a33c 807d 87bb
000001e0: 2611 15bb 58bd 083d 18fc 523c 0294 43bd
000001f0: e617 21bd 1c00 803d 07a5 2bbd 6e34 eb3c
0.03206315 0.054839864 0.06167102 -0.04336645 -0.038975198 0.04769648 0.052158374 0.008000828
0.0063328147 -0.057505377 -0.0038618892 0.0344527 0.06623891 -0.037603166 -0.029946119 0.059309628
-0.03548197 0.024747714 -0.042623874 -0.039314553 0.012606228 -0.016973218 -0.042390637 -0.02520892
-0.024564058 -0.0029612929 -0.02395449 0.037978783 -0.022287017 -0.0509666 -0.04228239 0.043932356
0.008784093 0.0023523495 0.035946347 -0.05974024 -0.031654276 0.0013649687 0.002796421 0.03342684
-0.0078077316 -0.023453452 0.06148088 -0.045426928 0.050286617 0.043767244 -0.045908205 0.03199511
-0.05013486 0.06045487 0.029365622 -0.043716542 -0.05483635 0.05969769 0.050569307 0.020439982
-0.02691714 -0.014419673 -0.009804964 -0.0109770065 -0.04962439 -0.04951761 -0.041181043 -0.05618632
-0.021137353 0.027397214 0.039559104 -0.028928967 0.019050438 0.0012370142 -0.027733387 0.049907204
0.007640016 0.012666342 0.01368814 -0.038784496 -0.026318276 0.024315936 0.045755304 0.03718492
-0.001584779 -0.04685725 0.0064606946 -0.03511826 -0.049131848 0.050064843 -0.019029927 0.019080494
0.030326279 -0.04508653 0.04448506 0.00031671816 -0.035827808 -0.04174287 -0.042042762 -0.029377628
0.05083888 0.011910446 0.04783896 -0.019011311 -0.030175269 -0.011971707 0.00048654526 -0.0026801005
0.042227726 -0.04818316 0.0010806322 0.044382155 0.0037381947 -0.049443275 0.057515174 0.05082782
0.030762462 0.041904412 -0.042913396 0.00068784156 0.028425224 -0.0019077945 0.019919448 -0.004134834
-0.0022745817 0.033383697 0.012877487 -0.047748573 -0.039329432 0.06250021 -0.04190543 0.028711524

fc3.weight f4 [64, 128]
00000000: ff11 af3c 4360 60bd b2ac 423d bf24 8ebd
00000010: 83c5 ab3d 4a44 c43c 75b2 0bbc 3df2 b23d
00000020: 6f2a 833d 9793 c9ba 7ad5 963d 7922 d63c
00000030: 08fc 893d 481e 963b 56e9 f6bc 69e2 c5bc
00000040: 3968 e1bc 0b01 623d fae9 fabc f71a b33d
00000050: 139e e9bc cc09 afbc b435 f73b 20d5 1cbd
00000060: a909 2ebd eec8 69bd 3f83 373d ef06 90bb
00000070: dcd7 583c 2aac 883d f3f9 2fbb bf8c c8bc
00000080: a0ba 3fbd acce 863d 3ed3 afbd ae91 cf3c
00000090: 6730 ddbb 52db 533d be10 32bd 00de d0bc
000000a0: 7054 58bd eb05 933d e830 873d 7b2d a43d
000000b0: 66b0 9f3d ce08 313d bf65 15bd ed66 f0bc
000000c0: fa39 ba3c 1545 3c3d c991 8abd 1b5a a6bd
000000d0: 082b 803d b0fb fc3c 890f 28bd 1a6b 703c
000000e0: 1697 2f3d 7d5e 7c3c 9de1 98bd 027a 9f3d
000000f0: 133d ae3d 62cb 92bd 25e7 c0bc bf34 f83c
00000100: afac 9fbd bfe7 95ba 4099 973d 3beb 3a3d
00000110: a35e 66bd 3612 32bd 7fb7 96bd 1e69 a7bd
00000120: 1837 fb3c 528e a13c 8b1d 1ebd 61f5 8e3d
00000130: fe76 8abd b365 31bd 675e 0c3d 8dc1 aa3d
00000140: b523 88bd a40a 50bd 5b94 ad3b fd78 4fbd
00000150: c250 6dbc fae3 9fbd 5870 43bd 101e 263c
00000160: e301 a73d 3291 d33c 1a76 84bc fe87 403c
00000170: 3e95 05bd ae78 9a3d 4247 383d f96f 4fbd
00000180: 18e5 26bd ec25 28bc 26ff 41bd 1059 153d
00000190: 4715 20bd d07a 84bd f144 6ebd 2a10 24bd
000001a0: ef25 2cbd 472d 703d 1280 95bd db0c 123d
000001b0: c01e 61bd 0684 afbd 74cd 3a3c 48e3 97bd
000001c0: dc61 15bd 54f1 813d 1c0d b4bc 020b 34bd
000001d0: 5e4f cbbc ed41 8a3d 3364 a8bd 0bf7 c63c
000001e0: 7220 533d 4573 9c3d a488 99bd 5e24 4fbc
000001f0: 4984 843c 2e46 203c b69e d5bc 037b 53bd
00000200: 171a 5cbd 4a52 0cbd 20da 1fbc 1cdf d33d
00000210: 7e79 1cbc d8f6 99bd 1897 583d 0aba 563c
00000220: 55eb 033d 3554 63bd 0fd4 6bbd da0c 91bc
00000230: 85c5 523d 6568 9ebd 13dc 13bd 4ad2 5d3a
00000240: 7f84 b43d 92a7 6fbd fd8a abbd 54a3 6d3d
00000250: fc34 a93d 09fe 9c3d fcdf 18bd c41c c7bb
00000260: fa83 2f3d c452 0dbb fd50 123c d27e bdbb
00000270: 37d0 32bd 11f6 803d 1980 b53d 7811 9a3d
00000280: 70eb 5cbd f824 74bd eccc f3bb 6242 a1bd
00000290: 296a 4d3d 57b7 b53c 2a36 5e3d 01eb 90bd
000002a0: d8a4 4abd 08f1 f53c ab72 01bd 1021 3e3c
000002b0: 972f b23d fdd9 abbd c6e7 04be b0ac 813c
000002c0: ba34 5a3d 1859 3fbd dc7a 74bc 7525 abbd
000002d0: 7a78 fd3c 95a4 873c 8917 863c 62a8 78bd
000002e0: f142 b63d 1bca 0f3d 1231 c73c f74b 9dbb
000002f0: bfa2 5ebd c8b6 23bd f8a6 2d3d c2fe 333d
00000300: 0791 c9bd 676a 47bd 17c0 92bd 87f3 643d
00000310: 4bd0 613d 09b1 d93d 2665 d43d 14d3 0c3d
00000320: f3c0 a83d 0f88 003d 4e59 463d 24f3 7cbd
00000330: 84b5 33bd bdf3 9c3c fa6d 9e3d 2119 1abc
00000340: 48d9 b4bd 96f6 f5bd c22e 223a bdc7 78bd
00000350: 1707 81bc 4eac 493d 5942 97bd 0abc eebc
00000360: 377d d2bd becd 833d 676e 30bd 58af 9b3d
00000370: 49ec c23d 733b 7f3c 10d9 a7bd 1c6a 8fbd
00000380: e1d8 d53c 6c59 3c3d 604f 6a3c 0511 6fbd
00000390: 31d4 9f3d f84e ea3d cc2e d33c 207a e43c
000003a0: d666 9ebd 48df ce3d 31d8 563d ba50 f7bb
000003b0: ffe8 36bd 3739 b4bc 0938 f9bb b395 9c3d
000003c0: d8d7 8a3c 0c2d 51bb be85 8ebc 092f 5a3d
000003d0: bbda 9fbd ae4d d7bc e02e df3c f080 503d
000003e0: 4a84 b73d 9c8b 61bd e64f 80bd f509 1d3b
000003f0: 9a1e 243d c21c cbbd 4239 87bd 0822 713d
0.021370886 -0.054779302 0.047527976 -0.069406025 0.08387282 0.023958344 -0.008526434 0.087376095
0.06404578 -0.0015379068 0.07364936 0.026139485 0.06737524 0.0045812465 -0.03014056 -0.024155812
-0.027515518 0.055176776 -0.030629147 0.087453775 -0.028517758 -0.021366976 0.0075442437 -0.03828919
-0.04248968 -0.057076387 0.0448029 -0.004395358 0.013235059 0.06673463 -0.0026851862 -0.024481175
-0.04680884 0.06582388 -0.08585213 0.02533802 -0.006750155 0.051722832 -0.043472998 -0.025496483
-0.0528149 0.07178863 0.06601125 0.08016487 0.07797317 0.043221287 -0.036473986 -0.029345954
0.022732724 0.04596432 -0.067660876 -0.08122655 0.062582076 0.030881733 -0.04103044 0.0146739725
0.042868696 0.015403387 -0.07464907 0.07786943 0.08507743 -0.071676984 -0.023547718 0.030298589
-0.07796609 -0.0011436864 0.07402277 0.04563449 -0.056242596 -0.0434744 -0.07359218 -0.081743464
0.03066592 0.019721184 -0.038602393 0.06980396 -0.06760977 -0.04330988 0.034269717 0.08337698
-0.066474356 -0.050791398 0.0052972264 -0.050652493 -0.014484586 -0.07807155 -0.04771456 0.010139003
0.08154657 0.02582607 -0.016169596 0.011751173 -0.03261303 0.07542549 0.04498983 -0.050643895
-0.040745825 -0.0102629475 -0.04736247 0.03646189 -0.03908279 -0.06468737 -0.058171216 -0.040054478
-0.042028364 0.05863693 -0.07299818 0.03565679 -0.054960966 -0.08570103 0.011401523 -0.07416397
-0.03647028 0.06344858 -0.021978907 -0.04395581 -0.024818119 0.067508556 -0.082222365 0.024287721
0.051544614 0.076391734 -0.07496765 -0.012642948 0.01617636 0.009782357 -0.026076656 -0.051630985
-0.05373582 -0.034258164 -0.009756595 0.10345289 -0.00955045 -0.07517785 0.05287847 0.013105879
0.032206852 -0.055500228 -0.05757528 -0.017706323 0.0514579 -0.077347554 -0.03609855 0.00084618165
0.08814334 -0.058509417 -0.08376119 0.05801709 0.08262059 0.07665641 -0.037322983 -0.006076427
0.042850472 -0.0021564225 0.008930442 -0.0057829404 -0.0436556 0.062969334 0.08862323 0.07522863
-0.05393547 -0.05960557 -0.0074402 -0.0787399 0.05015007 0.02218215 0.054250874 -0.070760734
-0.049473614 0.03002216 -0.031603497 0.011604562 0.08700483 -0.08391187 -0.1297904 0.015829414
0.05327294 -0.046715826 -0.01492187 -0.08356754 0.030941237 0.016557971 0.016368644 -0.060707457
0.08899487 0.035104852 0.02431539 -0.0048003155 -0.054354426 -0.039969236 0.042395562 0.043944128
-0.09842115 -0.048685458 -0.071655445 0.05589631 0.055130284 0.1062947 0.10370855 0.034380987
0.08239927 0.031379756 0.04842501 -0.061755314 -0.04387428 0.019159192 0.0773582 -0.009405405
-0.088305056 -0.12009923 0.0006186777 -0.06073736 -0.015750451 0.04923659 -0.07385702 -0.029142398
-0.10277789 0.064357266 -0.043074038 0.076018035 0.09517724 0.015578139 -0.08195698 -0.07002661
0.026104392 0.045983717 0.014301151 -0.05836584 0.07804144 0.11440843 0.02577915 0.027890265
-0.07734458 0.10101181 0.05245227 -0.007547465 -0.044655796 -0.021999938 -0.007605557 0.0764574
0.016948625 -0.003191772 -0.017397758 0.053267512 -0.078053914 -0.026282158 0.027244031 0.050904214
0.08960779 -0.055064783 -0.062652394 0.0023962234 0.040068246 -0.099175945 -0.06602718 0.058870345

fc3.bias f4 [64]
00000000: a7e6 54bd b7c3 483d c305 5ebd f184 a33b
00000010: df02 b9bd 4584 d93c 2a6a 3a3d b422 463d
00000020: d877 edbc 4c7f bb3d bb0c 173d f053 50bd
00000030: 9380 013d a118 bfbc 6272 da3d 9208 103d
00000040: d988 39ba 5d45 5e3d be8a 603b 0ccd 9cbc
00000050: a1fd ae3d 0871 8b3d fae9 6cba 8976 39bd
00000060: 321d 73bc 6fc9 18bc 1fe6 923d 3630 8c3c
00000070: 6977 95bd 7ef1 b33d 6f87 433c 9136 60bd
00000080: 95c1 783d ccb5 34bc bdb6 753d 6b87 883c
00000090: 66ed 99bd 9be7 a1bc 4de5 aabc 7f6e 383d
000000a0: a98d 5a3d 3190 123c 5390 bcbc 6e4c aa3d
000000b0: 44d1 d9bc f3d4 a9bc e20a a5bd 3021 5c3c
000000c0: 0613 2839 d1dc 953d fb2b 283d eca0 a03d
000000d0: 3595 7abd dce8 a13d 634a 79bd 2321 8ebd
000000e0: b686 193d e124 893c e10a 97bc 3821 4fbd
000000f0: 03d4 22bd 5b95 783c 756f 6c3d 9518 aebd
-0.05197778 0.049014773 -0.054204714 0.004990213 -0.09033751 0.026552329 0.045511402 0.04837294
-0.02898781 0.09155139 0.036877375 -0.0508613 0.03161676 -0.023327174 0.10666348 0.035164423
-0.0007077582 0.05426537 0.0034262384 -0.019140743 0.085444696 0.068086684 -0.0009037551 -0.04527906
-0.014838504 -0.009325369 0.07172798 0.017112833 -0.07298166 0.08786295 0.011934145 -0.05473954
0.06073149 -0.011029672 0.059988726 0.016666135 -0.07515983 -0.019763758 -0.020861292 0.045027252
0.053357754 0.008945511 -0.023018038 0.08315359 -0.026589043 -0.020731425 -0.08058716 0.013435647
0.00016028815 0.07317508 0.041057568 0.078431934 -0.06117745 0.079057425 -0.060861956 -0.06939914
0.037481986 0.016741218 -0.018437805 -0.05056879 -0.03975297 0.015172328 0.05772348 -0.085007824

fc4.weight f4 [32, 64]
00000000: 6cbf f5bd 639a 87bc 647a c4bd e00c 8dbd
00000010: 62b6 bb3d 5faa b4bc 9f2d 39bc f603 983d
00000020: 2b38 173e 783e eebd b859 12bd f007 263d
00000030: b677 c23d c0db dcbb 8440 1a3e 0c1f 04bd
00000040: 5f5a dc3d d0d2 ea3c d90e 8dbb e10b b73d
00000050: 2f44 2d3d 6bd0 633d 46b6 c83c cada ebbc
00000060: 08b7 fb3d fc7b 16bd 49c5 d2bd 2f5b 0d3e
00000070: 799c b0bd 0865 a13d 4a7f 16bd 6369 4a3d
00000080: b394 2f3d 08e0 c3bd d216 643d 8486 df3c
00000090: 400e df3b 7900 c83d 37e6 823d 1922 da3b
000000a0: 57d7 e63d b870 92bd 0e7a e0bd b544 0a3c
000000b0: 2388 c53d 88a1 7c3d d06a b3bd 9775 46bb
000000c0: a5f4 0e3e 209e af3d 3110 b03d 35ed f03d
000000d0: a8e1 65bd 21be 0bbe e0b9 f7bc 538a 4d3d
000000e0: a228 953c c850 6d3d 5510 683d d08c 27ba
000000f0: badf 1ebd 88f3 2a3d 8135 f4bd de16 e73d
00000100: 9e30 9a3d 2f72 42bd ac18 34bd c6b8 9a3d
00000110: b039 ad3d b014 1bbd 6901 7b3d b6b5 e83d
00000120: d10e 4ebd f13f d8b8 41f0 bc3d 44b1 f4bd
00000130: 7528 9bbd 1829 903c d119 8bbc 38fa c63d
00000140: 92c5 9cbc 94f0 82bd f924 cbbd 3f27 ecbd
00000150: 1dd3 f53d 85b6 12be bea9 ac3d 6b5a 77bd
00000160: 2023 6bbc 80c6 763d 7ccc 003e 13af 803d
00000170: afe8 4e3d e086 463d 201c 463e 58cc 053d
00000180: af8d 0d3d 20b0 933b 0ea3 e23c a0f6 e43d
00000190: 53c0 b43b 33d3 9dbc 8787 b5bc e430 f8bd
000001a0: f5d7 afbc db6b a63d 2023 a8bd 6145 1c3e
000001b0: 7c43 1d3e 85cf fd3d 6190 78bd c19e 523d
000001c0: d4a5 983d bbcf f9bd a132 623d 1acf c3bd
000001d0: 059c 66bc ba7c 403c 98fa 0cbd bf2a 79bd
000001e0: 6117 9cbd 6b9f ae3d eed6 fcbd 1626 0bbe
000001f0: 3d8e 95bd a002 46bd 4a75 07be 4e9c a8bd
00000200: fccb a53d c436 33bd 30e4 bf3d 4acc 8cbd
00000210: 38ea fc3c 68dc 2abd 2820 f53d c6bb 82bd
00000220: e864 b2bc 6693 82bd a88e 7f3d ea9f cc3d
00000230: 7abe 8bbd 620d 96bd 8807 a6bd 329d 88bd
00000240: 12bf ddbd 0ca1 d23d 727b 913d 3c11 c9bd
00000250: ea33 c8bd bed6 e9bd 86ff b4bd 9a72 81bd
00000260: bedf edbd 8601 fd3d 8ef2 87bd 0097 bcbd
00000270: d0b7 cabd e06e 5ebd b41b a83d 24a3 cfbd
00000280: 0095 a13c 3084 803c 1823 bfbd f037 c33c
00000290: a8cf b93c ca00 d93d b4ce 35bd 10c6 ac3c
000002a0: 6689 debd 8e17 dabd ce4a edbd ac29 ae3d
000002b0: 18c0 903c 08d5 dabd d4d7 61bd 40a4 2cbd
000002c0: cc16 d93d c0c6 da3b f096 23bc 8053 213b
000002d0: 36d8 a33d 18a5 e7bd d286 bbbd 963f c93d
000002e0: c2f3 e83d 2c9b 273d b268 b03d 0275 b1bd
000002f0: 5806 2bbd a0bd cbbc 8ec2 a6bd 4a13 dcbd
00000300: a058 333c 57d6 3d3d 6074 7b3c 5fa5 a4bb
00000310: 963e 543d 1ec0 bfbd 6e78 8ebb deb1 0dbe
00000320: ec6c 9cbc afa1 333d 0636 e73d 945e 88bd
00000330: 8ede 813d 00f6 753d 8c8a 3c3d a804 b2bd
00000340: 1310 9abd 378b 903c c437 f1bd 4ec1 00be
00000350: eef3 8f3d fe6b ecbd 2855 2e3d 9f17 5a3d
00000360: 80a0 1dbc 0049 2dba cbb8 1e3d bd4d 2a3e
00000370: f52d 04be 20f1 ebbc 0e5b 16bc 3aff 23bd
00000380: c021 d2bc 20ef 9ebd 6f2b 83bd a5f1 8cbd
00000390: ee07 0fbd fd17 ec3d a241 59bd 7bd9 09bd
000003a0: 4809 e73c fcaa ba3d 884f 86bd 8572 6abc
000003b0: 45f9 6f3d 49bb 64bd b870 923a ddeb e4bc
000003c0: ecbf 66bd c435 96bd 358e 933d 0f6e 6bbb
000003d0: 9247 8d3d 4e60 b63d 0030 18ba f460 0cbd
000003e0: 70c7 c6bd 27cb 9d3d c8df 0d3d 20ad f1bd
000003f0: 3f00 5a3d 7049 ef3c 783c aabd 48e6 8c3d
-0.119994015 -0.01655311 -0.09593657 -0.06887221 0.09165646 -0.022053896 -0.011302381 0.074226305
0.1476752 -0.11633009 -0.035730094 0.040534914 0.09495489 -0.0067400634 0.15063673 -0.03225617
0.107594244 0.028664976 -0.0043047485 0.089378126 0.042301353 0.055618685 0.024500977 -0.02879085
0.1229077 -0.036739334 -0.102915354 0.13804315 -0.08623595 0.07880598 -0.036742486 0.04941691
0.04286642 -0.09564215 0.055685826 0.027285822 0.0068071187 0.09765715 0.06391566 0.006656897
0.112715416 -0.07150406 -0.1096078 0.008439233 0.09645107 0.061677486 -0.08760607 -0.0030282491
0.13960512 0.08575082 0.08596838 0.11763994 -0.056123406 -0.13646747 -0.03024 0.050180744
0.018207852 0.057938367 0.0566562 -0.0006391527 -0.03878758 0.041736156 -0.119242676 0.112836584
0.07528804 -0.047472175 -0.04396884 0.07554774 0.08458269 -0.037861526 0.06128064 0.113627836
-0.0503071 -0.000103115926 0.09225512 -0.11947873 -0.07576076 0.01759772 -0.016980084 0.09715694
-0.019137178 -0.06393543 -0.09919161 -0.11530923 0.12003157 -0.14327438 0.08430813 -0.060388964
-0.014351636 0.060247898 0.12578005 0.06283393 0.050514873 0.04846847 0.19346666 0.03266558
0.034558948 0.0045070797 0.027665641 0.111798525 0.005516091 -0.019265747 -0.022159351 -0.121187
-0.021465281 0.081260405 -0.082098246 0.15260841 0.15357774 0.12393097 -0.060684565 0.05142093
0.07453504 -0.121978246 0.055224065 -0.09560986 -0.014075284 0.011748487 -0.034418672 -0.06083178
-0.07621647 0.085265 -0.12345682 -0.13588747 -0.073025204 -0.048342347 -0.13228336 -0.08232938
0.080955476 -0.0437534 0.09369695 -0.068749025 0.030873403 -0.041714102 0.11969024 -0.06383471
-0.021776631 -0.0637577 0.062391907 0.09991439 -0.0682344 -0.07326771 -0.08106905 -0.066706076
-0.108274594 0.102846235 0.071036234 -0.0981774 -0.09775527 -0.11417912 -0.088378 -0.06320687
-0.11614941 0.12353806 -0.066380605 -0.092084885 -0.09898341 -0.054304957 0.08208409 -0.101385385
0.019724369 0.015688032 -0.093328655 0.023830384 0.022682026 0.105958536 -0.04438658 0.021090537
-0.108660504 -0.10649024 -0.115865335 0.08504042 0.017669722 -0.10685164 -0.05513747 -0.04214883
0.10600051 0.006676525 -0.009984717 0.002461642 0.08000223 -0.11310786 -0.09156574 0.09826581
0.11374618 0.040919468 0.08613719 -0.086648956 -0.041754097 -0.024870694 -0.08142577 -0.107458666
0.010946423 0.04634699 0.01534757 -0.0050245966 0.0518175 -0.09362815 -0.0043478524 -0.13837382
-0.019094907 0.043855365 0.11289601 -0.06658664 0.06341277 0.060049057 0.046030566 -0.08692294
-0.07522597 0.017644508 -0.117782146 -0.1257374 0.07028948 -0.115440354 0.04256168 0.053245183
-0.009620786 -0.0006610304 0.03875045 0.16631217 -0.12908156 -0.0288015 -0.009176983 -0.040038325
-0.025650859 -0.07760453 -0.06404769 -0.068820275 -0.03491967 0.11528013 -0.053041108 -0.03365467
0.028202668 0.09114644 -0.06558138 -0.01430953 0.05858733 -0.05584267 0.0011172509 -0.0279445
-0.056335375 -0.07334474 0.07204858 -0.0035923754 0.068984166 0.089050874 -0.00058054924 -0.03427215
-0.097060084 0.07704764 0.034637243 -0.11800599 0.05322289 0.029209822 -0.08312315 0.0687986

fc4.bias f4 [32]
00000000: 2abb da3d 7f5e 463d c02b 583c a5b0 04be
00000010: 49c4 773d 0765 2cbd 311a 99bd 4f50 9e3d
00000020: 9c05 7f3d 7f38 133e 223b 433e 6243 923d
00000030: 5039 aa3d a657 183e 83c9 c4bd 0e6c c6bc
00000040: 6a5d c3bd c76e a33d c0b7 5a3c 4e75 f9bc
00000050: e897 dd3c 7864 09be 8ede db3d 9688 02be
00000060: 71ee 81bb caa9 b3bd 9f6a af3d 6c41 75bd
00000070: 7940 873d 231c 56bd f609 32bc 8027 1ebd
0.1068023 0.048429962 0.013194025 -0.1295801 0.060489926 -0.042088535 -0.07475699 0.077301614
0.06226121 0.1437702 0.19065526 0.071417585 0.08311713 0.14877185 -0.09608748 -0.024221446
-0.09539302 0.079801135 0.0133494735 -0.030451443 0.027049974 -0.13417232 0.10735808 -0.12747416
-0.003965192 -0.08772619 0.08565258 -0.059876844 0.06604094 -0.052272927 -0.010866633 -0.03861189

fc5.weight f4 [6, 32]
00000000: 36b6 823d 1518 9bbd f317 f93c 9f7d 943d
00000010: e330 3dbd 5d8b 113e 29ec 5f3e 9fd5 93bc
00000020: 98aa 15bd 349b 78bb 29a7 d0bc 56e4 1c3e
00000030: 8e68 fc3d f6d9 9bbb be6f 6c3e c0d5 923e
00000040: cb8f 04be 3d8d e83d a7b5 15bd 7478 c63a
00000050: efeb d73d e268 25bd 5b9f c43d 2750 cc3b
00000060: 5caf 0d3e 30bc 96bc a802 8fbd 1270 223e
00000070: fc7a e2bc a657 90bd e808 42be 96e3 193d
00000080: 6f1e a83c b2b8 263e 7e4a 2f3e aefa 923d
00000090: 513e 893e f6d4 1a3d 89bc 0c3d 3caf dc3d
000000a0: 4c2f 0c3e 8453 a4bd 2687 363d 142e 5abe
000000b0: 2fae 833d 2be4 77be 063c 1bbe c055 c73c
000000c0: 50f7 ae3d 768c b03e b672 cdbd c4a0 743e
000000d0: c389 8b3d 67c2 0abe fe3c 493e 90c6 0c3d
000000e0: 4755 5dbc fb76 553d ef57 623e 0636 463d
000000f0: 9a43 bcbd 5b97 ab3b 15d4 303e 2b72 db3d
00000100: 9958 4a3e 1072 8ebe 9e9f 223e 7010 32bc
00000110: d739 6b3e 5a1f 8b3e d9c1 f23d 2b7c 7a3e
00000120: 8bc3 f53d b9a6 873d c597 893e c7fa 73be
00000130: 6479 78bc 6927 2bbd 876e 623e d186 28bd
00000140: 4cf0 cc3d 3249 55bd 3fd1 313e 1e81 b3be
00000150: 94dd b6bc 9070 1a3e f09e 8b3e 5e26 09bb
00000160: 1ca4 9abd bd06 74bd f210 02bd abe7 69be
00000170: 68fa 25be 0ff8 92bc 5ad5 523c c06e abbd
00000180: a876 563d dd40 2a3d 8198 22be 7fa3 9e3d
00000190: 0374 f43d 733d debc bc8e 45bd e1a8 a33c
000001a0: e9f2 e1bd 8cad e0be 3579 43be b1a5 853e
000001b0: 0a2a c03d ace3 b23e 31a1 9a3d 7b75 96bd
000001c0: f637 bbbd d1ff 483e bd90 2cbe 6276 dfbd
000001d0: 5d8a 26be 80dc d53c 8cde 803e 4fbd 173e
000001e0: 5380 a8bd b996 a43c 7f96 78bc 1cf4 86bd
000001f0: 327a d8bd a898 a23d 0725 373e 0aeb fb3c
00000200: f2af 9bbd 0bc5 25be a639 19be 746e 91be
00000210: 366d 663d 783d a43d 27df a83d 7ef5 5d3e
00000220: 45fe 82bd f01b a2be d81c b1be 5bcd ffbd
00000230: 4acb 8bbe 5ccd 87bd 6117 82be 73a3 15be
00000240: 2e56 0b3e 6848 d23c 0c30 09bc dbbb 1e3d
00000250: c5b6 133e 4f3e 75be 0615 cf3d 44f5 efbd
00000260: c490 c23d b3a6 ad3c d831 76be d8f1 0d3e
00000270: 94bf 393d 82d8 2bbe bbfe 6abe 7761 d73d
00000280: d8ce 803e 370f b838 b275 963d e9ed 3ebd
00000290: e2aa 4e3d 8461 8abe 0cce e3bd 6f7b 8c3e
000002a0: 1376 03be 2f7c 6b3e 30ba bb3e 0a94 673e
000002b0: 2151 b03d 304a 823e df59 a9bd 1bc1 85bd
000002c0: ef56 cbbd 4ac0 163e 8fc9 dfbd 489b 13be
000002d0: 4f49 823d a40b 0abe 8132 603d e1f4 51bd
000002e0: fb45 903d d1ee e13d 4241 2c3d 53b5 9d3e
000002f0: 65e7 d63c b1bd 69be 12d2 24bd 9763 21be
0.0638241 -0.07572953 0.030406928 0.07250523 -0.0461892 0.14213319 0.21867432 -0.018046198
-0.036539644 -0.0037934305 -0.025470333 0.15321478 0.1232463 -0.0047562076 0.23089501 0.28678703
-0.12945478 0.11355064 -0.03655019 0.0015142099 0.10543048 -0.040383227 0.09600707 0.006235141
0.13836426 -0.018400282 -0.069829285 0.15863064 -0.027646534 -0.070479676 -0.1894871 0.03757056
0.020522324 0.16281393 0.1711826 0.071767196 0.26805356 0.03780075 0.03435949 0.10775611
0.13689917 -0.08023742 0.04456248 -0.2130664 0.06429707 -0.24208133 -0.15159616 0.024332881
0.08543265 0.34482163 -0.10031645 0.23889452 0.06813385 -0.13550721 0.19652173 0.03436905
-0.013509101 0.05211542 0.22103857 0.048391365 -0.091925815 0.005236549 0.17268403 0.10715135
0.1976036 -0.27821398 0.15881202 -0.010868177 0.22971283 0.27172357 0.1185338 0.24461429
0.120001875 0.06623597 0.26873603 -0.23826133 -0.0151656605 -0.04178563 0.22112475 -0.041144196
0.100067705 -0.052071758 0.17364977 -0.35059446 -0.022322454 0.15082002 0.27269697 -0.002092741
-0.07550833 -0.05957674 -0.03175444 -0.2284228 -0.16208804 -0.01794055 0.01286825 -0.08370733
0.052359253 0.041565765 -0.15878488 0.07746028 0.1193619 -0.02712891 -0.048231825 0.019977989
-0.110326596 -0.43882406 -0.19089206 0.26102975 0.09383018 0.34939325 0.07550276 -0.07346626
-0.09141533 0.19628836 -0.16852088 -0.109112516 -0.16263719 0.02610612 0.2516979 0.14818309
-0.08227601 0.020091401 -0.0151726 -0.06589529 -0.10570182 0.07939273 0.17885219 0.030751724
-0.07601918 -0.16188447 -0.14963397 -0.28404582 0.056256495 0.08019537 0.08245688 0.21675679
-0.06396154 -0.3166194 -0.3459232 -0.1249034 -0.27303535 -0.06630966 -0.25408462 -0.14613132
0.13607094 0.025669292 -0.008373272 0.03875337 0.1442519 -0.2394955 0.10111432 -0.117167026
0.09500268 0.021197652 -0.24042451 0.13861787 0.04534872 -0.1678181 -0.22948734 0.10516637
0.2515781 8.776638e-05 0.07346667 -0.046613608 0.050455935 -0.27027524 -0.11123285 0.27437922
-0.1283801 0.22996591 0.36665487 0.22615066 0.08609224 0.25447226 -0.08269095 -0.065309726
-0.09928691 0.1472179 -0.10927116 -0.14414704 0.06361639 -0.13481003 0.054735664 -0.051258925
0.07044598 0.11031879 0.042054422 0.30802402 0.026233384 -0.22826268 -0.0402394 -0.15760647

fc5.bias f4 [6]
00000000: 9cae 2a3e 9bf7 f73d e24e f53b 5520 e43d
00000010: 0eef 9bba 5605 ea3e
0.1666817 0.12107774 0.00748621 0.11138979 -0.0011896805 0.45707196
